lab/lab2/B2/camera_params.npz (npz, 2056 bytes, 4 tensors)

mtx f8 [3, 3]
0	0x4097ec6079283b9a	1531.0942121778849
1	0x0000000000000000	0.0
2	0x40858c85a2d602db	689.5652519912359
3	0x0000000000000000	0.0
4	0x4098137063246da3	1540.8597531978528
5	0x407a4e09025a2127	420.8771995087322
6	0x0000000000000000	0.0
7	0x0000000000000000	0.0
8	0x3ff0000000000000	1.0

dist f8 [1, 5]
0	0x3fb9882f251d3afd	0.09973425537212317
1	0x3feb3fffb80ee1c4	0.8515623659978293
2	0x3f7e086191fae96e	0.0073322116219805954
3	0x3f6f9705572333d8	0.003856192045623246
4	0xbff8ed8c84223adb	-1.557995334765727

rvecs f8 [20, 3, 1]
0	0xbfb944251e985df8	-0.09869606015160304
1	0xbfbf7c98cbae176c	-0.12299494717271181
2	0xc00914ea992d196e	-3.135213085831473
3	0x3fa675da50392530	0.04386789540564917
4	0x3fcdebf08d3014d5	0.2337628068345682
5	0xc00903d7dd14162c	-3.126876570868964
6	0xbfd112cff316a2af	-0.26677321185210706
7	0xbfb6b291a37139ce	-0.08866224518099061
8	0xc008ffeefdae9af1	-3.1249675578031817
9	0x3fdab7f7af6540dd	0.41747848633259627
10	0xbfa9f8d3ce530933	-0.05072652715309047
11	0xc008e0e7e3090aa8	-3.109817289079121
12	0x3fbb0f7fdac2420c	0.10570525255958091
13	0x3f4af7c5d33ea8fc	0.0008229938452946335
14	0xc0090697fc62befd	-3.1282195775637534
15	0x3fc46b7310da8fb7	0.15952909777581478
16	0xbfc6ac88db4709cf	-0.17714033800991877
17	0xc008fc2df66025f0	-3.123134541329584
18	0xbfa139b360451e46	-0.033643346311290886
19	0x3fc350b9472a3ce4	0.1509009931073485
20	0x40090af40c69111f	3.130348298031222
21	0xbfb52c15359c3f60	-0.08270390089842072
22	0x3fb0eb937c2fbf67	0.06609460622689554
23	0x40090a1a99912674	3.1299335477277115
24	0xbf9cde804c6812ed	-0.028192524589047464
25	0xbfd4518c2c5bcb74	-0.3174772675694648
26	0x4008f1cadcb07cb5	3.118062709938011
27	0xbfba7685641db83e	-0.1033709878372244
28	0xbfc057487b613877	-0.12766366981890417
29	0x4008ffd196f726af	3.1249114793943913
30	0xbfa3c4bf0ea96ef8	-0.03861043027856498
31	0x3f8f57876ec3a9fa	0.01530366713310104
32	0x40090a00360c81a2	3.1298832151953357
33	0xbf5b8004e8245580	-0.0016784713666927187
34	0xbfc08db57704813e	-0.12932461081892116
35	0x4009082f28146e0d	3.128996194003554
36	0xbfa9a4e6d7ea9290	-0.05008622537323959
37	0xbf9747a2e21033db	-0.02273420815258818
38	0x400901c8740a7b42	3.125870615548963
39	0xbfb32039c0d6e84a	-0.0747104736136929
40	0xbfa886b50db83682	-0.047902734684709194
41	0x4008fde79a18ce9b	3.123976901895572
42	0xbfb8901103d1873f	-0.095948279793018
43	0xbfc313d47aec0ff3	-0.14904266359383164
44	0x4008f4355fca8085	3.1192424281762805
45	0xbfe5445cee014948	-0.6645950935874589
46	0xbfd056187c49ba8a	-0.255254861235621
47	0x4008315f5bf0ff0d	3.0241076643868667
48	0xbfe5841eb466b0c2	-0.6723779223880444
49	0xbfc55f0c7aa8fbc7	-0.16696315755140587
50	0x40081e1739e7c874	3.0146927379474224
51	0xbfe3d121f7e7b930	-0.6192788926980821
52	0xbfcaee9c8fb6226a	-0.2104068471637846
53	0x40084285ff69c90b	3.0324821428449744
54	0xbfe3ace1c7f23602	-0.6148537545392971
55	0xbfcb647175709e3b	-0.21400278314944096
56	0x4008440af017f3a5	3.0332239873227587
57	0xbfe23570170ccd74	-0.569023175258208
58	0xbfcd375bee6f6e7e	-0.22825192587230342
59	0x400859ababe3f6dd	3.0437844685501276

tvecs f8 [20, 3, 1]
0	0x3fb33a7719806e0f	0.07511085865592569
1	0x3f8de8e437798e1b	0.014604361479718489
2	0x3fe2993878b104b2	0.5812036854987552
3	0x3fadd86288531650	0.05829151071661143
4	0xbfaea9cfcb97fa37	-0.059889310457937155
5	0x3fe26e5269e29e5b	0.5759670322485805
6	0x3fbecd32967317aa	0.12031856701932378
7	0x3f8b8018f48ed336	0.013427920306506285
8	0x3fe204189a532a73	0.5630000127942608
9	0xbfaf77ee58f9bf3f	-0.061461876260067154
10	0xbf6d31ac2fddb31f	-0.003563724806488713
11	0x3fe296f11c1e4c3b	0.5809255170046365
12	0x3f601dfbdaf64b08	0.001967422394679178
13	0x3f7be6fe15153885	0.006812088498305728
14	0x3fe2aa7ed261ae48	0.5833124264731362
15	0x3f1e734738296e8a	0.00011615869701969199
16	0x3fa1e006ea65c773	0.03491231547640341
17	0x3fe295d6dea85e08	0.580790934446612
18	0x3f8ba54a83cd1be8	0.01349886145329822
19	0x3fa6e998aaefd330	0.04475094877844865
20	0x3fe273c971b8eba7	0.5766341420306745
21	0x3f8bf6de424acfa5	0.013654457471922241
22	0x3f9cf9c9fd9bf2c1	0.028296619514537328
23	0x3fe28cead8e58570	0.5797018276463586
24	0x3f8b55b4f8efce79	0.013347066733309309
25	0x3f8c871b5a4a5bfb	0.013929570858904219
26	0x3fe2aed7801f842f	0.5838429930119043
27	0x3f8b23c73daab31a	0.013251835412427183
28	0x3f70ea24efad7bce	0.004129547388258948
29	0x3fe29c0ec16e8dab	0.5815500047651104
30	0x3f8b2d02a2f265e3	0.013269444082015752
31	0xbf87f177b753e418	-0.011691031725137122
32	0x3fe276d87dc8b3df	0.5770075279921193
33	0x3f8b128d8dc265c5	0.013218980682995327
34	0xbf9a7340b40659a1	-0.025830279338686094
35	0x3fe271ea5da511f3	0.5764056996345616
36	0x3f8af2794a464964	0.013157794551066977
37	0xbfa2b9851f352e08	-0.03657165533021717
38	0x3fe25b6886d613a4	0.5736582406540163
39	0x3f8b1456c3261edc	0.013222387152168329
40	0xbfaaed29e528d691	-0.052590665076803884
41	0x3fe2475ae1e670b2	0.5712103283035701
42	0x3f8af137fdd0d659	0.0131554006894518
43	0xbfb0a3b97a629d36	-0.06499823797149848
44	0x3fe23f719ec8254b	0.570244608040562
45	0xbfc11a20c3a3e6f4	-0.13360986283060294
46	0xbfb3ab9f8878bf84	-0.07683751184299409
47	0x3fe17c548d570b62	0.5464270363375869
48	0xbfc03accbd87ad0d	-0.12679442648309483
49	0xbfb3a739b77913bb	-0.07677040795631644
50	0x3fe1803db474aa2f	0.5469044231916252
51	0xbfbcebcf597e9eff	-0.11297317442824449
52	0xbfb3f6d3d55c4f21	-0.07798503836630434
53	0x3fe1ae831897d8cf	0.5525527458510399
54	0xbfbcdb003426e8ed	-0.11271668694726929
55	0xbfb3f17984c60e13	-0.07790336123985524
56	0x3fe1b2959eb6bd62	0.5530498599891127
57	0xbfbb493990c351ab	-0.106586072771569
58	0xbfb41de02fbb241d	-0.07858086743648625
59	0x3fe1c5d2f1099ba8	0.5553984363331113
