lab/lab2/B1/camera_params.npz (npz, 2008 bytes, 4 tensors)

mtx f8 [3, 3]
000000 e5 f2 16 61 c9 31 8a 40 00 00 00 00 00 00 00 00
       838.2233297150493 0.0
000010 57 b6 9c 8a 3a d1 75 40 00 00 00 00 00 00 00 00
       349.07679234710434 0.0
000020 a2 85 fd e1 72 70 8a 40 39 fb 6b 0c 2f 6e 73 40
       846.0560951048285 310.88648645572863
000030 00 00 00 00 00 00 00 00 00 00 00 00 00 00 00 00
       0.0 0.0
000040 00 00 00 00 00 00 f0 3f
       1.0

dist f8 [1, 5]
000000 22 c4 54 cc 49 42 00 c0 8c 49 5e e3 72 e7 55 40
       -2.0323673213356566 87.61638721664184
000010 fa 91 18 0f 3f 31 9d 3f 51 e7 1a 6c e7 80 80 bf
       0.028508172317872373 -0.008058364855390162
000020 89 65 67 de 10 c4 90 c0
       -1073.0164734035227

rvecs f8 [19, 3, 1]
000000 29 15 3d 10 db e5 b4 3f 43 4b 9c 05 47 bb c9 3f
       0.08163231989336296 0.20102775358153666
000010 a7 9d e5 f7 57 d6 08 40 bd d4 e2 f3 97 6c b1 3f
       3.1046599738071623 0.06806325630425909
000020 ee 39 d9 b8 e2 bf c9 3f d1 55 88 1e 9f d7 08 40
       0.20116838479812266 3.1052839646679122
000030 e1 5c e0 2d d2 9c c5 3f a2 f5 bb 3b 76 44 d2 3f
       0.16884829750117716 0.2854285796491586
000040 45 09 e4 db 64 5c 08 40 d6 7c d4 c3 2a 2c ad bf
       3.045114248177159 -0.05697759285453123
000050 86 00 c4 b8 8e cc a1 3f 54 7d ea 30 f2 a5 08 c0
       0.03476377492370468 -3.0810283490715538
000060 78 3c cf 60 b5 0d 8c bf 15 4b 1e 42 70 f4 e0 3f
       -0.013698021904842358 0.5298386851667113
000070 e3 de 86 cc a8 6b 08 c0 c5 32 49 97 e6 e0 a5 3f
       -3.052568052164007 0.04273148152114951
000080 b9 43 f6 75 c0 91 d7 3f 0d 2c 42 92 8d 3a 08 c0
       0.3682709838840839 -3.0285903383678545
000090 6e 86 b6 6b af 6e d9 3f 0a e3 78 4f 70 4b b6 bf
       0.39738069075438076 -0.08708860340346916
0000a0 c5 3f 6e 9b 84 bc 08 c0 9a 4f 17 af c0 f7 a6 3f
       -3.092049803068195 0.0448589528783991
0000b0 57 0a 4c 79 89 41 de bf fc 12 3a 05 b6 7e 08 c0
       -0.47275006146825177 -3.0618706138942553
0000c0 99 21 c8 02 0f 77 99 3f c3 e1 48 4c 00 f4 d7 bf
       0.02486823515394718 -0.3742676491706584
0000d0 ab 7b 8d cc ad d7 08 40 ce 50 d4 9e 95 3e ce 3f
       3.105311964099618 0.23628492598857637
0000e0 95 83 0f 07 35 6a bd 3f 0f 15 5e 3f 03 e1 08 c0
       0.1149018423307225 -3.10986947542063
0000f0 6a 63 87 b1 90 86 d4 bf e3 b0 9c 57 10 62 d2 bf
       -0.32071320854952623 -0.287235341604868
000100 1a e4 58 90 3b 5c 08 c0 5b f0 77 02 3c 8c d2 3f
       -3.045035484040011 0.2898092292887264
000110 0e f7 0e 04 f9 e6 9e 3f 3d e0 e2 2c 2b 62 08 c0
       0.030177965996464322 -3.047933912919716
000120 15 58 e6 47 7b ff df 3f 86 86 5e 35 15 c5 d4 3f
       0.49996835729086914 0.3245289822753893
000130 e0 ca 7c 1b 63 71 08 c0 95 27 1f bd 32 fa da 3f
       -3.0553648135622637 0.4215208861247615
000140 1d 3e b9 b9 85 ca ac 3f ce 8d c1 a1 2b 85 08 c0
       0.0562326230252632 -3.0650246274178476
000150 2d 14 0b 29 ae 3a e4 3f f5 91 b2 10 08 c9 b2 3f
       0.6321631242395874 0.0733799973264196
000160 10 e0 fb 19 8a 15 08 c0 c1 7a 63 91 56 f0 e2 bf
       -3.0105173139563774 -0.5918381538029608
000170 1f 89 cf 49 aa 9b b0 bf c6 a0 b4 44 78 95 08 40
       -0.06487526227968886 3.0729832999823854
000180 3a 18 73 95 91 75 e0 3f fd bd a9 f9 df b1 b6 3f
       0.5143516463219904 0.08865165562905726
000190 0e a9 6e 05 92 93 08 c0 ac 58 c3 31 14 06 d5 3f
       -3.0720558571239343 0.32849602565455416
0001a0 42 7c 94 db 7f a5 c5 bf 47 80 d1 44 06 c8 08 c0
       -0.1691131422203132 -3.0976682068285615
0001b0 cd d2 d9 2a 22 a9 d4 3f 94 e9 a9 39 fc 5e c7 bf
       0.32282308754592465 -0.18258621993647906
0001c0 56 fc 90 43 fd f2 08 c0
       -3.1186471251126404

tvecs f8 [19, 3, 1]
000000 7b 60 70 a4 4a dc a3 3f 41 3e 1d 58 c1 ec 90 3f
       0.038790066311947556 0.016528149607721202
000010 be 5a cb 82 0a dc d3 3f f0 a9 b0 8c f3 df a3 3f
       0.31030524037252494 0.03881798832329142
000020 8e 9f 61 0b 6a f2 90 3f d6 b3 3f 05 2f e0 d3 3f
       0.016549736923849027 0.31055808556157893
000030 f4 49 0c c3 d2 35 b0 3f 9c 84 35 e4 46 ac a0 3f
       0.06332127820886752 0.032564368588972686
000040 f0 63 e2 4b 67 21 d4 3f a1 67 78 82 61 b8 aa 3f
       0.31453878794269396 0.05218796460776721
000050 ae 69 05 94 29 4f ac 3f 2e 3a 34 67 61 2b d5 3f
       0.05529146129511574 0.3307727344371497
000060 24 c0 b8 71 48 bf ab 3f f5 43 e4 ab 9f 95 a2 3f
       0.05419374836162685 0.03629778836523904
000070 97 6a d5 08 6b 1b d8 3f 86 92 9a e0 a7 7a ac 3f
       0.3766734682336987 0.055623289267974704
000080 3b 9e 11 96 44 58 93 3f c0 a5 5f e3 c1 5b d8 3f
       0.018891402873491208 0.3806004257627045
000090 a7 5b 8f 7d 54 4f a5 3f 7c 3b 08 46 42 5b a8 3f
       0.04162086518015622 0.04757125000843751
0000a0 89 9a 50 05 06 2c db 3f ad 0d 45 0d a9 56 b2 3f
       0.42456198233632186 0.07163483213394413
0000b0 64 18 55 23 73 60 85 3f 09 49 a7 11 b0 58 e1 3f
       0.010437869563826925 0.542076143721972
0000c0 96 67 1b 03 5f ad b4 3f 82 33 c0 40 c2 9a 87 3f
       0.08077043367248246 0.011525647736584824
0000d0 6a e6 86 fb 7d a3 e3 3f 2a 39 17 b9 15 e0 b1 3f
       0.6137075340877349 0.06982551354233082
0000e0 eb 74 db 90 27 27 94 3f 35 77 c0 0c ce 3f e1 3f
       0.019680612770447786 0.5390386818942036
0000f0 99 f4 77 60 23 6a a1 3f c4 df da 47 e1 d5 a1 3f
       0.03401289513201639 0.03483489992271374
000100 46 76 04 07 db 4a e0 3f 66 32 36 15 9a 3b a4 3f
       0.5091376435336279 0.039517226304359096
000110 68 14 f4 7b 11 75 7c 3f 39 56 d6 6b a8 73 e0 3f
       0.0069475825287145035 0.5141183954426146
000120 4f 67 30 84 80 22 aa 3f d6 fe 32 86 c6 dd a6 3f
       0.05104447950016199 0.044660762674082186
000130 c9 da 13 52 39 d6 df 3f 09 aa 53 c6 23 2a ac 3f
       0.49745018973719063 0.055009000739875864
000140 eb b9 11 ed 48 82 a9 3f 53 3b e5 6e a4 41 dc 3f
       0.04982211965476665 0.44150648908264606
000150 a2 f6 7d af 5b e0 a5 3f 75 5c 7b bc 0e d5 a5 3f
       0.04272734181630013 0.04264112520984834
000160 d8 fc d1 8a 5d 01 dd 3f 6c 1a 3c 11 23 29 b2 3f
       0.45320833737055244 0.07094020052691413
000170 82 ee ab 1f 2f bb af 3f cc 2e be 8e f6 b1 dc 3f
       0.06197497617355642 0.4483620065663956
000180 f1 55 dd 7c 5b 2f 9e 3f 7a ab 7b e8 f4 53 a6 3f
       0.029477529045228882 0.04360928857734954
000190 c9 f2 d6 fc 3c 17 db 3f a5 4f cc 7e d6 9c ab 3f
       0.42329334918376255 0.053930953005106454
0001a0 bd 9e 32 d3 22 18 a9 3f c3 14 9f b8 b6 8c d7 3f
       0.04901226833436343 0.3679634859984839
0001b0 4c 7f a2 aa 23 74 ad 3f b5 51 c3 39 b2 7f a9 3f
       0.057526697711408475 0.04980236964334798
0001c0 da 88 e7 b3 1d 5f d7 3f
       0.3651804215316027
